Model: "sequential"
_________________________________________________________________
Layer (type)                 Output Shape              Param #   
=================================================================
embedding (Embedding)        (None, 27, 100)           13172200  
_________________________________________________________________
flatten (Flatten)            (None, 2700)              0         
_________________________________________________________________
dropout (Dropout)            (None, 2700)              0         
_________________________________________________________________
dense (Dense)                (None, 520)               1404520   
_________________________________________________________________
dense_1 (Dense)              (None, 2)                 1042      
=================================================================
Total params: 14,577,762
Trainable params: 1,405,562
Non-trainable params: 13,172,200
_________________________________________________________________
Epoch 1/10
1280/1280 - 27s - loss: 0.9061 - accuracy: 0.6867 - val_loss: 0.6993 - val_accuracy: 0.7020
Epoch 2/10
1280/1280 - 26s - loss: 0.6584 - accuracy: 0.6928 - val_loss: 0.6243 - val_accuracy: 0.6978
…
