Model: "sequential"
_________________________________________________________________
Layer (type)                 Output Shape              Param #
=================================================================
embedding (Embedding)        (None, 27, 100)           13172200
_________________________________________________________________
flatten (Flatten)            (None, 2700)              0
_________________________________________________________________
dropout (Dropout)            (None, 2700)              0
_________________________________________________________________
dense (Dense)                (None, 520)               1404520
_________________________________________________________________
dense_1 (Dense)              (None, 2)                 1042
=================================================================
Total params: 14,577,762
Trainable params: 1,405,562
Non-trainable params: 13,172,200
_________________________________________________________________
Epoch 1/10
1280/1280 - 28s - loss: 0.8596 - accuracy: 0.6908 - val_loss: 0.6625 - val_accuracy: 0.7110
Epoch 2/10
1280/1280 - 28s - loss: 0.6206 - accuracy: 0.7177 - val_loss: 0.5880 - val_accuracy: 0.7288
…
